_________________________________________________________________
Layer (type)                 Output Shape              Param #   
=================================================================
embedding_1 (Embedding)      (None, 169, 300)          4993800   
_________________________________________________________________
dropout_1 (Dropout)          (None, 169, 300)          0         
_________________________________________________________________
bidirectional_1 (Bidirection (None, 169, 100)          140400    
_________________________________________________________________
dropout_2 (Dropout)          (None, 169, 100)          0         
_________________________________________________________________
time_distributed_1 (TimeDist (None, 169, 50)           5050      
_________________________________________________________________
crf_1 (CRF)                  (None, 169, 7)            420       
=================================================================
Total params: 5,139,670
Trainable params: 5,139,670
Non-trainable params: 0
_________________________________________________________________
None
Train on 5736 samples, validate on 1172 samples
Epoch 1/10

  48/5736 [..............................] - ETA: 4:57 - loss: 16.2983 - acc: 0.6758
  96/5736 [..............................] - ETA: 2:50 - loss: 15.3175 - acc: 0.7000
…
