_________________________________________________________________
Layer (type)                 Output Shape              Param #   
=================================================================
embedding_1 (Embedding)      (None, 169, 100)          1664600   
_________________________________________________________________
dropout_1 (Dropout)          (None, 169, 100)          0         
_________________________________________________________________
conv1d_1 (Conv1D)            (None, 169, 50)           15050     
_________________________________________________________________
dropout_2 (Dropout)          (None, 169, 50)           0         
_________________________________________________________________
conv1d_2 (Conv1D)            (None, 169, 50)           7550      
_________________________________________________________________
dropout_3 (Dropout)          (None, 169, 50)           0         
_________________________________________________________________
conv1d_3 (Conv1D)            (None, 169, 50)           7550      
_________________________________________________________________
dropout_4 (Dropout)          (None, 169, 50)           0         
_________________________________________________________________
time_distributed_1 (TimeDist (None, 169, 7)            357       
=================================================================
Total params: 1,695,107
Trainable params: 1,695,107
Non-trainable params: 0
_________________________________________________________________
None
Train on 5736 samples, validate on 1172 samples
Epoch 1/200

  64/5736 [..............................] - ETA: 3:07 - loss: 1.8039 - acc: 0.0545
 384/5736 [=>............................] - ETA: 30s - loss: 1.7269 - acc: 0.0593 
…
