_________________________________________________________________
Layer (type)                 Output Shape              Param #   
=================================================================
embedding_1 (Embedding)      (None, 169, 300)          4993800   
_________________________________________________________________
dropout_1 (Dropout)          (None, 169, 300)          0         
_________________________________________________________________
conv1d_1 (Conv1D)            (None, 169, 50)           45050     
_________________________________________________________________
dropout_2 (Dropout)          (None, 169, 50)           0         
_________________________________________________________________
conv1d_2 (Conv1D)            (None, 169, 50)           7550      
_________________________________________________________________
dropout_3 (Dropout)          (None, 169, 50)           0         
_________________________________________________________________
conv1d_3 (Conv1D)            (None, 169, 50)           7550      
_________________________________________________________________
dropout_4 (Dropout)          (None, 169, 50)           0         
_________________________________________________________________
time_distributed_1 (TimeDist (None, 169, 7)            357       
=================================================================
Total params: 5,054,307
Trainable params: 5,054,307
Non-trainable params: 0
_________________________________________________________________
None
Train on 5736 samples, validate on 1172 samples
Epoch 1/200

  64/5736 [..............................] - ETA: 1:53 - loss: 2.1005 - acc: 0.8406
 320/5736 [>.............................] - ETA: 22s - loss: 1.9885 - acc: 0.3228 
…
