_________________________________________________________________
Layer (type)                 Output Shape              Param #   
=================================================================
embedding_1 (Embedding)      (None, 169, 300)          4993800   
_________________________________________________________________
dropout_1 (Dropout)          (None, 169, 300)          0         
_________________________________________________________________
conv1d_1 (Conv1D)            (None, 169, 50)           75050     
_________________________________________________________________
dropout_2 (Dropout)          (None, 169, 50)           0         
_________________________________________________________________
conv1d_2 (Conv1D)            (None, 169, 50)           12550     
_________________________________________________________________
dropout_3 (Dropout)          (None, 169, 50)           0         
_________________________________________________________________
conv1d_3 (Conv1D)            (None, 169, 50)           12550     
_________________________________________________________________
dropout_4 (Dropout)          (None, 169, 50)           0         
_________________________________________________________________
conv1d_4 (Conv1D)            (None, 169, 50)           12550     
_________________________________________________________________
dropout_5 (Dropout)          (None, 169, 50)           0         
_________________________________________________________________
conv1d_5 (Conv1D)            (None, 169, 50)           12550     
_________________________________________________________________
dropout_6 (Dropout)          (None, 169, 50)           0         
_________________________________________________________________
time_distributed_1 (TimeDist (None, 169, 7)            357       
=================================================================
Total params: 5,119,407
Trainable params: 5,119,407
Non-trainable params: 0
_________________________________________________________________
None
Train on 5736 samples, validate on 1172 samples
Epoch 1/200

  64/5736 [..............................] - ETA: 2:47 - loss: 1.7637 - acc: 0.8171
 256/5736 [>.............................] - ETA: 41s - loss: 1.6732 - acc: 0.2548 
…
