_________________________________________________________________
Layer (type)                 Output Shape              Param #   
=================================================================
embedding_1 (Embedding)      (None, 169, 100)          1664600   
_________________________________________________________________
conv1d_1 (Conv1D)            (None, 169, 50)           15050     
_________________________________________________________________
dropout_1 (Dropout)          (None, 169, 50)           0         
_________________________________________________________________
conv1d_2 (Conv1D)            (None, 169, 50)           7550      
_________________________________________________________________
dropout_2 (Dropout)          (None, 169, 50)           0         
_________________________________________________________________
conv1d_3 (Conv1D)            (None, 169, 50)           7550      
_________________________________________________________________
dropout_3 (Dropout)          (None, 169, 50)           0         
_________________________________________________________________
dense_1 (Dense)              (None, 169, 50)           2550      
_________________________________________________________________
crf_1 (CRF)                  (None, 169, 7)            420       
=================================================================
Total params: 1,697,720
Trainable params: 1,697,720
Non-trainable params: 0
_________________________________________________________________
None
Train on 5736 samples, validate on 1172 samples
Epoch 1/200

  64/5736 [..............................] - ETA: 4:44 - loss: 1.6476 - acc: 0.0049
 128/5736 [..............................] - ETA: 2:24 - loss: 1.6580 - acc: 0.0058
…
