_________________________________________________________________
Layer (type)                 Output Shape              Param #   
=================================================================
embedding_1 (Embedding)      (None, 169, 100)          1664600   
_________________________________________________________________
dropout_1 (Dropout)          (None, 169, 100)          0         
_________________________________________________________________
bidirectional_1 (Bidirection (None, 169, 100)          60400     
_________________________________________________________________
dropout_2 (Dropout)          (None, 169, 100)          0         
_________________________________________________________________
bidirectional_2 (Bidirection (None, 169, 100)          60400     
_________________________________________________________________
dropout_3 (Dropout)          (None, 169, 100)          0         
_________________________________________________________________
bidirectional_3 (Bidirection (None, 169, 100)          60400     
_________________________________________________________________
dropout_4 (Dropout)          (None, 169, 100)          0         
_________________________________________________________________
time_distributed_1 (TimeDist (None, 169, 7)            707       
=================================================================
Total params: 1,846,507
Trainable params: 1,846,507
Non-trainable params: 0
_________________________________________________________________
None
Train on 5736 samples, validate on 1172 samples
Epoch 1/200

  48/5736 [..............................] - ETA: 12:20 - loss: 1.9459 - acc: 0.1327
  96/5736 [..............................] - ETA: 8:25 - loss: 1.9453 - acc: 0.4185 
…
