_________________________________________________________________
Layer (type)                 Output Shape              Param #   
=================================================================
embedding_1 (Embedding)      (None, 169, 300)          4993800   
_________________________________________________________________
dropout_1 (Dropout)          (None, 169, 300)          0         
_________________________________________________________________
bidirectional_1 (Bidirection (None, 169, 100)          140400    
_________________________________________________________________
dropout_2 (Dropout)          (None, 169, 100)          0         
_________________________________________________________________
bidirectional_2 (Bidirection (None, 169, 100)          60400     
_________________________________________________________________
dropout_3 (Dropout)          (None, 169, 100)          0         
_________________________________________________________________
bidirectional_3 (Bidirection (None, 169, 100)          60400     
_________________________________________________________________
crf_1 (CRF)                  (None, 169, 7)            770       
=================================================================
Total params: 5,255,770
Trainable params: 261,970
Non-trainable params: 4,993,800
_________________________________________________________________
None
Train on 5736 samples, validate on 1172 samples
Epoch 1/200
  64/5736 [..............................] - ETA: 712s - loss: 12.3930 - acc: 0.1820
…
