_________________________________________________________________
Layer (type)                 Output Shape              Param #   
=================================================================
embedding_1 (Embedding)      (None, 169, 300)          4993800   
_________________________________________________________________
dropout_1 (Dropout)          (None, 169, 300)          0         
_________________________________________________________________
conv1d_1 (Conv1D)            (None, 169, 50)           45050     
_________________________________________________________________
dropout_2 (Dropout)          (None, 169, 50)           0         
_________________________________________________________________
conv1d_2 (Conv1D)            (None, 169, 50)           7550      
_________________________________________________________________
dropout_3 (Dropout)          (None, 169, 50)           0         
_________________________________________________________________
conv1d_3 (Conv1D)            (None, 169, 50)           7550      
_________________________________________________________________
dropout_4 (Dropout)          (None, 169, 50)           0         
_________________________________________________________________
conv1d_4 (Conv1D)            (None, 169, 50)           7550      
_________________________________________________________________
dropout_5 (Dropout)          (None, 169, 50)           0         
_________________________________________________________________
time_distributed_1 (TimeDist (None, 169, 7)            357       
=================================================================
Total params: 5,061,857
Trainable params: 68,057
Non-trainable params: 4,993,800
_________________________________________________________________
None
Train on 5736 samples, validate on 1172 samples
Epoch 1/200

  64/5736 [..............................] - ETA: 2:28 - loss: 1.8073 - acc: 0.8358
 448/5736 [=>............................] - ETA: 20s - loss: 1.7027 - acc: 0.1343 
…
2304/5736 [===========>..................] - ETA: 0s
3488/5736 [=================>............] - ETA: 0s
4736/5736 [=======================>......] - ETA: 0s
5736/5736 [==============================] - 0s 57us/step

  32/1172 [..............................] - ETA: 0s
1088/1172 [==========================>...] - ETA: 0s
1172/1172 [==============================] - 0s 53us/step
_________________________________________________________________
Layer (type)                 Output Shape              Param #   
=================================================================
embedding_1 (Embedding)      (None, 169, 300)          4993800   
_________________________________________________________________
dropout_1 (Dropout)          (None, 169, 300)          0         
_________________________________________________________________
conv1d_1 (Conv1D)            (None, 169, 50)           75050     
_________________________________________________________________
dropout_2 (Dropout)          (None, 169, 50)           0         
_________________________________________________________________
conv1d_2 (Conv1D)            (None, 169, 50)           12550     
_________________________________________________________________
dropout_3 (Dropout)          (None, 169, 50)           0         
_________________________________________________________________
conv1d_3 (Conv1D)            (None, 169, 50)           12550     
_________________________________________________________________
dropout_4 (Dropout)          (None, 169, 50)           0         
_________________________________________________________________
conv1d_4 (Conv1D)            (None, 169, 50)           12550     
_________________________________________________________________
dropout_5 (Dropout)          (None, 169, 50)           0         
_________________________________________________________________
time_distributed_1 (TimeDist (None, 169, 7)            357       
=================================================================
Total params: 5,106,857
Trainable params: 113,057
Non-trainable params: 4,993,800
_________________________________________________________________
None
Train on 5736 samples, validate on 1172 samples
Epoch 1/200

  64/5736 [..............................] - ETA: 2:28 - loss: 2.2719 - acc: 0.8140
 256/5736 [>.............................] - ETA: 37s - loss: 2.0867 - acc: 0.3171 
…
