_________________________________________________________________
Layer (type)                 Output Shape              Param #   
=================================================================
embedding_1 (Embedding)      (None, 169, 100)          1664600   
_________________________________________________________________
dropout_1 (Dropout)          (None, 169, 100)          0         
_________________________________________________________________
conv1d_1 (Conv1D)            (None, 169, 50)           15050     
_________________________________________________________________
dropout_2 (Dropout)          (None, 169, 50)           0         
_________________________________________________________________
conv1d_2 (Conv1D)            (None, 169, 50)           7550      
_________________________________________________________________
dropout_3 (Dropout)          (None, 169, 50)           0         
_________________________________________________________________
conv1d_3 (Conv1D)            (None, 169, 50)           7550      
_________________________________________________________________
dropout_4 (Dropout)          (None, 169, 50)           0         
_________________________________________________________________
conv1d_4 (Conv1D)            (None, 169, 50)           7550      
_________________________________________________________________
dropout_5 (Dropout)          (None, 169, 50)           0         
_________________________________________________________________
time_distributed_1 (TimeDist (None, 169, 7)            357       
=================================================================
Total params: 1,702,657
Trainable params: 1,702,657
Non-trainable params: 0
_________________________________________________________________
None
Train on 5736 samples, validate on 1172 samples
Epoch 1/200

  64/5736 [..............................] - ETA: 4:15 - loss: 1.8072 - acc: 0.1230
 384/5736 [=>............................] - ETA: 40s - loss: 1.7308 - acc: 0.0262 
…
