_________________________________________________________________
Layer (type)                 Output Shape              Param #   
=================================================================
embedding_1 (Embedding)      (None, 169, 300)          4993800   
_________________________________________________________________
dropout_1 (Dropout)          (None, 169, 300)          0         
_________________________________________________________________
conv1d_1 (Conv1D)            (None, 169, 50)           45050     
_________________________________________________________________
dropout_2 (Dropout)          (None, 169, 50)           0         
_________________________________________________________________
conv1d_2 (Conv1D)            (None, 169, 50)           7550      
_________________________________________________________________
dropout_3 (Dropout)          (None, 169, 50)           0         
_________________________________________________________________
conv1d_3 (Conv1D)            (None, 169, 50)           7550      
_________________________________________________________________
dropout_4 (Dropout)          (None, 169, 50)           0         
_________________________________________________________________
dense_1 (Dense)              (None, 169, 50)           2550      
_________________________________________________________________
crf_1 (CRF)                  (None, 169, 7)            420       
=================================================================
Total params: 5,056,920
Trainable params: 63,120
Non-trainable params: 4,993,800
_________________________________________________________________
None
Train on 5736 samples, validate on 1172 samples
Epoch 1/200

  64/5736 [..............................] - ETA: 2:57 - loss: 1.7261 - acc: 0.0079
 128/5736 [..............................] - ETA: 1:32 - loss: 1.8367 - acc: 0.0084
…
