_________________________________________________________________
Layer (type)                 Output Shape              Param #   
=================================================================
embedding_1 (Embedding)      (None, 169, 300)          4993800   
_________________________________________________________________
dropout_1 (Dropout)          (None, 169, 300)          0         
_________________________________________________________________
bidirectional_1 (Bidirection (None, 169, 100)          140400    
_________________________________________________________________
dropout_2 (Dropout)          (None, 169, 100)          0         
_________________________________________________________________
bidirectional_2 (Bidirection (None, 169, 100)          60400     
_________________________________________________________________
dropout_3 (Dropout)          (None, 169, 100)          0         
_________________________________________________________________
bidirectional_3 (Bidirection (None, 169, 100)          60400     
_________________________________________________________________
dropout_4 (Dropout)          (None, 169, 100)          0         
_________________________________________________________________
time_distributed_1 (TimeDist (None, 169, 50)           5050      
_________________________________________________________________
crf_1 (CRF)                  (None, 169, 7)            420       
=================================================================
Total params: 5,260,470
Trainable params: 5,260,470
Non-trainable params: 0
_________________________________________________________________
None
Train on 5736 samples, validate on 1172 samples
Epoch 1/200
  48/5736 [..............................] - ETA: 779s - loss: 2.1322 - acc: 0.1237
…
